…
+-----------------------------------------------------------------------------+
</code></pre>
<p>The model.summary() output on SageMaker is (this is what I want it to be):</p>
<pre class=""lang-py prettyprint-override""><code>Model: &quot;model&quot;
_________________________________________________________________
 Layer (type)                Output Shape              Param #   
=================================================================
 input_1 (InputLayer)        [(None, 549, 549, 1)]     0         
                                                                 
 conv2d (Conv2D)             (None, 549, 549, 1)       7535574   
                                                                 
 batch_normalization (BatchN  (None, 549, 549, 1)      4         
 ormalization)                                                   
                                                                 
 conv2d_1 (Conv2D)           (None, 549, 549, 1)       2713158   
                                                                 
 batch_normalization_1 (Batc  (None, 549, 549, 1)      4         
 hNormalization)                                                 
                                                                 
 conv2d_2 (Conv2D)           (None, 549, 549, 1)       301950    
                                                                 
 batch_normalization_2 (Batc  (None, 549, 549, 1)      4         
 hNormalization)                                                 
                                                                 
 conv2d_3 (Conv2D)           (None, 549, 549, 1)       2713158   
                                                                 
=================================================================
Total params: 13,263,852
Trainable params: 13,263,846
Non-trainable params: 6

</code></pre>
<p>The model.summary() output on EC2 is (notice the shape change):</p>
<pre class=""lang-py prettyprint-override""><code>
Model: &quot;model&quot;
_________________________________________________________________
 Layer (type)                Output Shape              Param #   
=================================================================
 input_1 (InputLayer)        [(None, 549, 549, 1)]     0         
                                                                 
 conv2d (Conv2D)             (None, 549, 549, 549)     14274     
                                                                 
 batch_normalization (BatchN  (None, 549, 549, 549)    2196      
 ormalization)                                                   
                                                                 
 conv2d_1 (Conv2D)           (None, 549, 549, 549)     2713158   
                                                                 
 batch_normalization_1 (Batc  (None, 549, 549, 549)    2196      
 hNormalization)                                                 
                                                                 
 conv2d_2 (Conv2D)           (None, 549, 549, 549)     301950    
                                                                 
 batch_normalization_2 (Batc  (None, 549, 549, 549)    2196      
 hNormalization)                                                 
                                                                 
 conv2d_3 (Conv2D)           (None, 549, 549, 549)     2713158   
                                                                 
=================================================================
Total params: 5,749,128
Trainable params: 5,745,834
Non-trainable params: 3,294
_________________________________________________________________
</code></pre>
<p>One other thing that is interesting, if I change my model on the EC2 instance to:</p>
<pre class=""lang-py prettyprint-override""><code>inp = layers.Input(shape=(*SIZE, 1))
…
x = layers.Conv2D(filters=1, kernel_size=(3, 3), padding=&quot;same&quot;, activation=&quot;sigmoid&quot;)(x)

model = Model(inp, x)

model.compile(loss=tf.keras.losses.binary_crossentropy, optimizer=Adam())
</code></pre>
<p>My model.summary() output becomes:</p>
<pre class=""lang-py prettyprint-override""><code>Model: &quot;model_2&quot;
_________________________________________________________________
 Layer (type)                Output Shape              Param #   
=================================================================
 input_3 (InputLayer)        [(None, 549, 549, 1)]     0         
                                                                 
 conv2d_8 (Conv2D)           (None, 549, 549, 1)       26        
                                                                 
 batch_normalization_6 (Batc  (None, 549, 549, 1)      4         
 hNormalization)                                                 
                                                                 
 conv2d_9 (Conv2D)           (None, 549, 549, 1)       10        
                                                                 
 batch_normalization_7 (Batc  (None, 549, 549, 1)      4         
 hNormalization)                                                 
                                                                 
 conv2d_10 (Conv2D)          (None, 549, 549, 1)       2         
                                                                 
 batch_normalization_8 (Batc  (None, 549, 549, 1)      4         
 hNormalization)                                                 
                                                                 
 conv2d_11 (Conv2D)          (None, 549, 549, 1)       10        
                                                                 
=================================================================
Total params: 60
Trainable params: 54
Non-trainable params: 6
_________________________________________________________________
</code></pre>
<p>In the last model the shape is correct but the trainable parameters is very low.</p>
<p>Any ideas as to why the output shape is different and why this is happening with the filters?</p>
…
<p>Edit: Output log for model.summary()</p>
<pre><code>Model: &quot;model&quot;
__________________________________________________________________________________________________
 Layer (type)                   Output Shape         Param #     Connected to                     
==================================================================================================
 input_1 (InputLayer)           [(None, 14, 8, 8)]   0           []                               
                                                                                                  
 conv2d (Conv2D)                (None, 32, 8, 8)     4064        ['input_1[0][0]']                
                                                                                                  
 conv2d_1 (Conv2D)              (None, 32, 8, 8)     9248        ['conv2d[0][0]']                 
                                                                                                  
 batch_normalization (BatchNorm  (None, 32, 8, 8)    32          ['conv2d_1[0][0]']               
 alization)                                                                                       
                                                                                                  
 activation (Activation)        (None, 32, 8, 8)     0           ['batch_normalization[0][0]']    
                                                                                                  
 conv2d_2 (Conv2D)              (None, 32, 8, 8)     9248        ['activation[0][0]']             
                                                                                                  
 batch_normalization_1 (BatchNo  (None, 32, 8, 8)    32          ['conv2d_2[0][0]']               
 rmalization)                                                                                     
                                                                                                  
 add (Add)                      (None, 32, 8, 8)     0           ['batch_normalization_1[0][0]',  
                                                                  'conv2d[0][0]']                 
                                                                                                  
 activation_1 (Activation)      (None, 32, 8, 8)     0           ['add[0][0]']                    
                                                                                                  
 conv2d_3 (Conv2D)              (None, 32, 8, 8)     9248        ['activation_1[0][0]']           
                                                                                                  
 batch_normalization_2 (BatchNo  (None, 32, 8, 8)    32          ['conv2d_3[0][0]']               
 rmalization)                                                                                     
                                                                                                  
 activation_2 (Activation)      (None, 32, 8, 8)     0           ['batch_normalization_2[0][0]']  
                                                                                                  
 conv2d_4 (Conv2D)              (None, 32, 8, 8)     9248        ['activation_2[0][0]']           
                                                                                                  
 batch_normalization_3 (BatchNo  (None, 32, 8, 8)    32          ['conv2d_4[0][0]']               
 rmalization)                                                                                     
                                                                                                  
 add_1 (Add)                    (None, 32, 8, 8)     0           ['batch_normalization_3[0][0]',  
                                                                  'activation_1[0][0]']           
                                                                                                  
 activation_3 (Activation)      (None, 32, 8, 8)     0           ['add_1[0][0]']                  
                                                                                                  
 conv2d_5 (Conv2D)              (None, 32, 8, 8)     9248        ['activation_3[0][0]']           
                                                                                                  
 batch_normalization_4 (BatchNo  (None, 32, 8, 8)    32          ['conv2d_5[0][0]']               
 rmalization)                                                                                     
                                                                                                  
 activation_4 (Activation)      (None, 32, 8, 8)     0           ['batch_normalization_4[0][0]']  
                                                                                                  
 conv2d_6 (Conv2D)              (None, 32, 8, 8)     9248        ['activation_4[0][0]']           
                                                                                                  
 batch_normalization_5 (BatchNo  (None, 32, 8, 8)    32          ['conv2d_6[0][0]']               
 rmalization)                                                                                     
                                                                                                  
 add_2 (Add)                    (None, 32, 8, 8)     0           ['batch_normalization_5[0][0]',  
                                                                  'activation_3[0][0]']           
                                                                                                  
 activation_5 (Activation)      (None, 32, 8, 8)     0           ['add_2[0][0]']                  
                                                                                                  
 conv2d_7 (Conv2D)              (None, 32, 8, 8)     9248        ['activation_5[0][0]']           
                                                                                                  
 batch_normalization_6 (BatchNo  (None, 32, 8, 8)    32          ['conv2d_7[0][0]']               
 rmalization)                                                                                     
                                                                                                  
 activation_6 (Activation)      (None, 32, 8, 8)     0           ['batch_normalization_6[0][0]']  
                                                                                                  
 conv2d_8 (Conv2D)              (None, 32, 8, 8)     9248        ['activation_6[0][0]']           
                                                                                                  
 batch_normalization_7 (BatchNo  (None, 32, 8, 8)    32          ['conv2d_8[0][0]']               
 rmalization)                                                                                     
                                                                                                  
 add_3 (Add)                    (None, 32, 8, 8)     0           ['batch_normalization_7[0][0]',  
                                                                  'activation_5[0][0]']           
                                                                                                  
 activation_7 (Activation)      (None, 32, 8, 8)     0           ['add_3[0][0]']                  
                                                                                                  
 flatten (Flatten)              (None, 2048)         0           ['activation_7[0][0]']           
                                                                                                  
 dense (Dense)                  (None, 1)            2049        ['flatten[0][0]']                
                                                                                                  
==================================================================================================
Total params: 80,353
Trainable params: 80,225
Non-trainable params: 128
__________________________________________________________________________________________________
…
<p>The problem is (I guess) that, from the model summary the model is training from the last dimension when it should be working in the second one:</p>
<pre><code>dense_model.summary()

Model: &quot;sequential_21&quot;
_________________________________________________________________
Layer (type)                 Output Shape              Param #   
=================================================================
                                          |Model is being applied here
                                          |
                                          v
dense_232 (Dense)            (None, 200, 200)          400       
_________________________________________________________________
                                     |When it should be applied here
                                     |
                                     v
activation_225 (Activation)  (None, 200, 200)          0         
_________________________________________________________________
dropout_211 (Dropout)        (None, 200, 200)          0         
_________________________________________________________________
dense_233 (Dense)            (None, 200, 100)          20100     
_________________________________________________________________
activation_226 (Activation)  (None, 200, 100)          0         
_________________________________________________________________
dropout_212 (Dropout)        (None, 200, 100)          0         
_________________________________________________________________
dense_234 (Dense)            (None, 200, 50)           5050      
_________________________________________________________________
activation_227 (Activation)  (None, 200, 50)           0         
_________________________________________________________________
dropout_213 (Dropout)        (None, 200, 50)           0         
_________________________________________________________________
dense_235 (Dense)            (None, 200, 25)           1275      
_________________________________________________________________
activation_228 (Activation)  (None, 200, 25)           0         
_________________________________________________________________
dropout_214 (Dropout)        (None, 200, 25)           0         
_________________________________________________________________
dense_236 (Dense)            (None, 200, 13)           338       
_________________________________________________________________
activation_229 (Activation)  (None, 200, 13)           0         
_________________________________________________________________
dropout_215 (Dropout)        (None, 200, 13)           0         
_________________________________________________________________
dense_237 (Dense)            (None, 200, 7)            98        
_________________________________________________________________
activation_230 (Activation)  (None, 200, 7)            0         
_________________________________________________________________
dropout_216 (Dropout)        (None, 200, 7)            0         
_________________________________________________________________
dense_238 (Dense)            (None, 200, 4)            32        
_________________________________________________________________
activation_231 (Activation)  (None, 200, 4)            0         
_________________________________________________________________
dropout_217 (Dropout)        (None, 200, 4)            0         
_________________________________________________________________
dense_239 (Dense)            (None, 200, 2)            10        
_________________________________________________________________
activation_232 (Activation)  (None, 200, 2)            0         
_________________________________________________________________
dropout_218 (Dropout)        (None, 200, 2)            0         
_________________________________________________________________
dense_240 (Dense)            (None, 200, 1)            3         
=================================================================
Total params: 27,306
Trainable params: 27,306
Non-trainable params: 0
_________________________________________________________________


</code></pre>
<p>And because of that Im getting <code>ValueError: logits and labels must have the same shape ((None, 200, 1) vs (None, 1, 1))</code></p>
<p>How can I tell Keras to apply the training in the second dimension and not the last one?</p>
…
